Pytorch/MNISTmodel.pth (torch, 39353 bytes, 6 tensors)

conv1.weight f4 [8, 1, 3, 3]
-0.49986786 -0.57763904 -0.04787844 -0.48934853 -0.013161794 0.51918864 0.2785752 0.6480113
0.35081786 0.22432363 0.46689132 0.674779 -0.1160914 -0.05968568 0.18624994 -0.59665436
-0.6087228 -0.2211975 -0.3013478 0.5170738 0.050467607 -0.3758798 0.16100514 0.28177637
0.30111274 0.3543004 0.61132216 0.49571142 0.3299849 0.09295851 0.66946536 0.55996317
-0.37792638 0.25694034 -0.13540994 -0.20742439 -0.6467804 -1.0098511 -0.6328223 0.3412022
0.3745876 0.10726915 0.40341097 0.38507968 0.5575864 0.6028146 0.2786384 0.5043174
-0.0444811 0.20741378 0.045222197 -0.31436697 -0.5509492 -0.38901725 0.4605202 0.59616584
-0.22342144 -0.2594996 0.4832964 0.53261244 -0.765573 -0.1616964 0.26149678 0.5269418
0.30970165 -0.45042112 0.4680401 -0.002610757 0.35088137 0.3390375 0.47049597 0.12810993
00000000: aeee ffbe 27e0 13bf 2f1c 44bd e48b fabe
00000010: 91a4 57bc 8ce9 043f 69a1 8e3e 12e4 253f
00000020: 669e b33e 18b5 653e 610c ef3e 51be 2c3f
00000030: 54c1 edbd f978 74bd 4eb8 3e3e 57be 18bf
00000040: 42d5 1bbf 9981 62be 424a 9abe f35e 043f
00000050: 1fb7 4e3d 5173 c0be 88de 243e fe44 903e
00000060: 732b 9a3e dd66 b53e 9c7f 1c3f e3cd fd3e
00000070: c8f3 a83e 0861 be3d 1562 2b3f bf59 0f3f
00000080: 917f c1be af8d 833e e7a8 0abe 0f67 54be
00000090: 6693 25bf cd42 81bf a400 22bf 0eb2 ae3e
000000a0: f2c9 bf3e eeaf db3d e28b ce3e 2a29 c53e
000000b0: fbbd 0e3f 0f52 1a3f b1a9 8e3e f21a 013f
000000c0: d031 36bd 4764 543e e93a 393d b5f4 a0be
000000d0: 020b 0dbf 452d c7be 4ec9 eb3e 539e 183f
000000e0: 97c8 64be 22dd 84be a072 f73e 4a59 083f
000000f0: 98fc 43bf be93 25be e8e2 853e a8e5 063f
00000100: 3791 9e3e 999d e6be f4a2 ef3e 3c19 2bbb
00000110: b9a6 b33e 5396 ad3e d9e4 f03e 402f 033e

conv1.bias f4 [8]
-0.040048167 -0.00164811 0.08158514 -0.018510332 0.07435422 -0.15004605 -0.30862948 -0.03519786
00000000: 8c09 24bd 6505 d8ba 1c16 a73d fba2 97bc
00000010: 0647 983d aca5 19be af04 9ebe a22b 10bd

conv2.weight f4 [16, 8, 3, 3]
0.07342791 -0.1828906 0.17428929 -0.01489117 0.099525444 0.16856216 0.07882858 -0.07515698
-0.471556 -0.4037686 -0.19081815 -0.5230455 0.21389198 -0.09342824 0.2989308 -0.19459492
-0.017095486 0.044910062 -0.01812853 0.081740215 0.10757456 -0.13691211 -0.10703291 0.013082399
0.009948909 0.045354113 -0.38397628 -0.15053934 -0.27964333 -0.15437782 0.18211377 0.052904658
0.101570174 -0.09265268 0.091487825 0.039925337 0.4004137 0.09708425 0.31184277 -0.032817412
0.0395589 0.2939892 -0.12592833 -0.2531347 -0.8341325 -0.47115725 -0.1770491 -0.40227696
0.1536729 -0.13353202 0.04371486 -0.25001258 0.0643791 0.24916922 -0.114686064 -0.17197944
-0.37036017 0.32220525 -0.15535401 -0.07330892 0.053652205 -0.02689257 -0.092106044 0.07381938
-0.05033043 0.06563349 0.110182986 0.09319383 -0.012996504 -0.058264658 0.12698866 -0.1595231
0.16570619 0.035367317 0.0130845625 -0.04231841 -0.09349352 -0.11774422 -0.56429803 -0.5372103
-0.21137922 -0.28357825 0.05464396 0.057345174 -0.21216741 0.26768896 0.1639257 0.021185573
0.12293017 -0.04225134 0.18257664 -0.0013500913 0.0073983017 -0.040556796 -0.10503604 -0.39034843
-0.25718543 -0.3060912 -0.23046985 0.25108474 0.29943785 0.0694001 0.26190323 0.048016723
0.038307685 0.22300744 -0.1651235 -0.33544803 -0.0577313 0.033932604 0.04937422 -0.17179623
-0.34541172 -0.30096617 -0.36357263 -0.34073886 0.06078506 -0.028892368 0.13431308 0.3041935
0.054484736 0.25559255 0.19552754 0.22658432 0.2454696 0.09105721 -0.06339764 0.33173832
0.041277416 -0.26406738 0.06390063 -0.15092662 -0.034661453 -0.07751514 0.003987177 0.24150014
0.17565618 0.17170066 0.21812223 0.12637241 -0.16434678 0.22865148 -0.24774691 -0.3503646
0.134256 0.15133922 0.014412082 -0.08615242 0.061460257 -0.102803834 -0.113186374 -0.012195173
-0.003709632 -0.4937546 -0.21074544 0.15428641 0.46784312 -0.022592545 -0.29923856 0.16103265
0.057256307 -0.18055598 -0.06572631 0.012638045 -0.30131736 -0.13881992 -0.052847523 -0.12548785
-0.13105369 0.19324824 0.028677529 -0.055161536 -0.13625261 -0.079197735 0.122458585 -0.051871493
0.057743527 0.09281218 0.11410619 0.20323557 0.18065964 0.37511253 -0.03703242 -0.096109435
0.33290792 0.121956296 -0.42043453 -0.033811107 0.042793784 -0.30340463 0.049720902 0.40227684
0.37754828 -0.15671086 -0.29693922 0.12431346 -0.083154544 -0.13234858 -0.035911195 -0.34436277
-0.27628207 0.39228597 0.43220514 -0.25909036 0.30670533 0.5975924 0.1854961 0.12518276
-0.19519642 -0.32884866 0.034074098 -0.031078191 -0.049652293 -0.116716065 0.08855731 0.25370818
-0.104437605 0.17467664 0.104867764 -0.07266758 -0.040875915 -0.018700851 -0.022364046 -0.21674658
-0.2022297 -0.30772096 -0.39455977 -0.029599298 -0.22675772 -0.15195355 -0.17830622 -0.20416011
-0.13033104 0.14099726 0.04925352 0.12471885 -0.076492526 0.14953569 0.22863738 -0.12304765
0.07098673 0.27375212 0.16162322 -0.3529881 0.058342695 0.27245817 -0.19213931 0.089331284
0.27216306 -0.05195676 0.015963223 0.14886174 -0.33675933 -0.2943021 -0.22788076 -0.48828462
00000000: 5f61 963d ac47 3bbe e478 323e 18fa 73bc
00000010: ffd3 cb3d 8f9b 2c3e e170 a13d e7eb 99bd
00000020: ca6f f1be c2ba cebe d565 43be 4fe6 05bf
00000030: 8006 5b3e 4e57 bfbd 750d 993e e443 47be
00000040: d50b 8cbc 9df3 373d 4882 94bc 6a67 a73d
00000050: 0d50 dc3d b032 0cbe 1234 dbbd 8f57 563c
00000060: c000 233c 3cc5 393d 8a98 c4be fc26 1abe
00000070: 692d 8fbe 3815 1ebe 087c 3a3e 8eb2 583d
00000080: 0604 d03d b0c0 bdbd f85d bb3d c088 233d
00000090: 0603 cd3e 1bd4 c63d dba9 9f3e 8d6b 06bd
000000a0: 8308 223d c185 963e 5bf3 00be df9a 81be
000000b0: b589 55bf 863b f1be 5c4c 35be 3ff7 cdbe
000000c0: 6e5c 1d3e 9ebc 08be 5a0e 333d a601 80be
000000d0: 31d9 833d 3726 7f3e 87e0 eabd 611b 30be
000000e0: d99f bdbe 16f8 a43e 1f15 1fbe fd22 96bd
000000f0: 6ac2 5b3d cf4d dcbc 18a2 bcbd 9d2e 973d
00000100: 4827 4ebd da6a 863d 9ea7 e13d 68dc be3d
00000110: 4aef 54bc eca6 6ebd 5109 023e 065a 23be
00000120: e2ae 293e 52dd 103d a260 563c 1256 2dbd
00000130: 8879 bfbd e223 f1bd d675 10bf 9d86 09bf
00000140: cb73 58be 2b31 91be 58d2 5f3d c6e2 6a3d
00000150: 6a42 59be 870e 893e 24dc 273e 5e8d ad3c
00000160: d0c2 fb3d be0f 2dbd 5ff5 3a3e 8cf5 b0ba
00000170: 746d f23b e21e 26bd 231d d7bd c0db c7be
00000180: cfad 83be fcb7 9cbe 4a00 6cbe 2e8e 803e
00000190: eb4f 993e a421 8e3d 2e18 863e 2fad 443d
000001a0: 85e8 1c3d 105c 643e 2316 29be d8bf abbe
000001b0: a877 6cbd eafc 0a3d 9f3c 4a3d 5aeb 2fbe
000001c0: ced9 b0be 3d18 9abe 3126 babe 5375 aebe
000001d0: c1f9 783d b0af ecbc 5e89 093e 40bf 9b3e
000001e0: 632b 5f3d 07dd 823e 5f38 483e b805 683e
000001f0: 625c 7b3e 347c ba3d 9fd6 81bd 9bd9 a93e
00000200: 8212 293d d733 87be 55de 823d 828c 1abe
00000210: 2bf9 0dbd 42c0 9ebd dda6 823b d04b 773e
00000220: 37df 333e 4cd2 2f3e 6f5b 5f3e c567 013e
00000230: 864a 28be 9d23 6a3e 5eb1 7dbe fd62 b3be
00000240: 687a 093e abf8 1a3e a720 6c3c ae70 b0bd
00000250: c0bd 7b3d d18a d2bd 42ce e7bd 43ce 47bc
00000260: 4c1d 73bb 67cd fcbe a7cd 57be 42fd 1d3e
00000270: 2289 ef3e 0014 b9bc cc35 99be bee5 243e
00000280: 9785 6a3d abe3 38be 849b 86bd cd0f 4f3c
00000290: 4546 9abe cf26 0ebe a576 58bd e37f 00be
000002a0: f032 06be dee2 453e 23ed ea3c 10f1 61bd
000002b0: ce85 0bbe 6c32 a2bd 91cb fa3d 3477 54bd
000002c0: 7a84 6c3d 5014 be3d 82b0 e93d fc1c 503e
000002d0: d7fe 383e c00e c03e 4faf 17bd 06d5 c4bd
000002e0: e872 aa3e 39c4 f93d 3243 d7be 847d 0abd
000002f0: 8948 2f3d da57 9bbe 25a8 4b3d 3bf7 cd3e
00000300: 024e c13e d078 20be 6b08 98be 0e98 fe3d
00000310: ee4c aabd 6386 07be 9e17 13bd 5150 b0be
00000320: d874 8dbe b5d9 c83e fe49 dd3e 7ea7 84be
00000330: 7b08 9d3e d1fb 183f b1f2 3d3e e92f 003e
00000340: 92e1 47be da5e a8be 4891 0b3d b197 febc
00000350: 3460 4bbd d508 efbd 895d b53d 0ae6 813e
00000360: 62e3 d5bd 6fde 323e e9c4 d63d bdd2 94bd
00000370: 816d 27bd 8732 99bc ce34 b7bc d1f2 5dbe
00000380: 4d15 4fbe 9a8d 9dbe bd03 cabe 3a7a f2bc
00000390: 2d33 68be b699 1bbe e895 36be 590f 51be
000003a0: 8075 05be 9661 103e 0fbe 493d 996c ff3d
000003b0: 1da8 9cbd e21f 193e eb1f 6a3e 6800 fcbd
000003c0: 7e61 913d 3d29 8c3e 8f80 253e dbba b4be
000003d0: c0f8 6e3d a37f 8b3e 2bc0 44be 52f3 b63d
000003e0: f558 8b3e 9dd0 54bd 4ec5 823c 366f 183e
000003f0: b86b acbe c4ae 96be 9359 69be 7100 fabe

conv2.bias f4 [16]
-0.13032356 -0.093708076 -0.34673974 -0.29899305 -0.10592253 -0.011301225 0.054666903 -0.14982371
0.09249657 0.01829638 -0.4476107 -0.49917036 -0.011247751 -0.06379649 -0.13829131 -0.28591913
00000000: 8a73 05be 05ea bfbd df87 b1be 9e15 99be
00000010: e9ed d8bd c628 39bc 67ea 5f3d 636b 19be
00000020: d76e bd3d 4ae2 953c 3b2d e5be 4293 ffbe
00000030: 7d48 38bc bca7 82bd 3d9c 0dbe fe63 92be

fc1.weight f4 [10, 784]
-0.032195967 -0.05759913 -0.18195988 -0.026753904 -0.3054358 -0.22311774 0.033494547 -0.04409692
-0.056146942 0.013898048 -0.039002594 -0.07830159 -0.06678737 0.08210316 -0.2106417 0.17888212
0.026380535 0.027032984 0.0048222956 0.011305035 0.19812693 -0.112942964 0.101712346 0.14520508
-0.38120443 -0.16081907 -0.12375225 0.06599606 0.035171892 -0.050146103 0.056647412 -0.0682023
0.022537217 -0.071272254 -0.11646665 -0.10522121 -0.07080346 0.06729259 0.0738379 0.06223608
0.030338155 -0.22728401 -0.034692213 -0.20166379 -0.2145905 -0.05855812 -0.01108079 -0.26956606
-0.07376371 -0.028129248 -0.028644044 0.027900586 -0.28721732 0.012661282 -0.3577278 -0.3016699
-0.040362135 -0.41048285 -0.1967974 0.08802084 -0.09489778 -0.19175167 -0.091664344 -0.045487944
-0.32314038 0.054788094 0.17535068 -0.19527143 -0.12855159 0.034620617 -0.10842856 -0.21299094
0.08695098 -0.032615382 -0.28995296 0.08112715 0.10413413 -0.07167856 -0.023116942 0.004788589
-0.08992175 0.011367955 0.082427524 0.13662775 0.026530309 -0.059933655 0.08535816 0.08602325
0.040303428 0.01104166 -0.017366227 -0.021479756 0.04538344 0.05061255 0.005794803 -0.04072395
-0.07667804 -0.15406176 -0.094754964 -0.053315688 -0.06578793 -0.028948458 0.10000389 -0.001822501
-0.071569 -0.054134045 0.017314076 -0.09840733 0.09182219 0.06943154 0.092628315 0.17880592
-0.046654694 0.01415854 0.050413463 0.09308881 0.10745918 0.014600303 0.14353189 -0.07963947
-0.068895996 -0.03365896 0.020115372 -0.14761025 -0.010996981 0.015865924 -0.113676436 -0.050122898
0.06373372 -0.00920534 -0.14277175 -0.2538528 0.00033023919 -0.079822674 -0.045336973 -0.016628759
0.16854715 -0.12649624 -0.22121017 -0.19831157 -0.0040834052 -0.19389708 0.12462187 -0.07547318
-0.022127641 -0.18111329 -0.22223274 -0.080227196 -0.07211998 -0.09075415 0.0024963084 -0.1460267
-0.10835494 -0.012176884 -0.14552104 -0.048030242 -0.049406596 -0.06451002 0.0014300632 -0.019661523
0.046333704 -0.15915175 -0.0076153637 -0.039887372 0.02489412 0.006421915 0.11110387 0.047788892
-0.1682986 0.033997662 0.063103646 -0.10014628 -0.03477493 0.04137326 0.0512644 0.0023629162
0.04279054 0.08389539 -0.17086396 -0.055082094 0.0006883794 -0.06640762 0.040369313 0.083726555
0.16662766 0.033187 -0.02069693 -0.18377416 -0.16019906 0.04841174 0.05793852 -0.176
-0.25762975 -0.42420405 -0.19968498 -0.015102119 -0.03716813 0.12332853 0.059831038 -0.05747161
-0.044840015 0.012031803 0.115536444 0.15452819 0.06993935 -0.0480347 -0.069182284 0.015723092
-0.020124627 0.021990016 0.12321986 0.045204528 0.14434008 0.10530114 -0.14736097 -0.23691869
0.00018652872 0.07484396 0.14559828 0.19160545 -0.22329727 -0.09200344 -0.12829243 -0.32509887
0.013504279 -0.12928075 -0.0019950808 -0.021088388 0.044762887 0.0056384746 -0.48816642 -0.0951316
-0.16673982 -0.05971247 -0.08778333 0.17578827 0.10179529 0.09605814 0.07654588 -0.35321873
-0.6259943 -0.39642644 0.089813694 0.072480865 0.078757755 -0.117391825 0.05772046 0.0062848753
-0.058689144 -0.28248164 -0.3483523 0.014436418 -0.12564257 -0.083903156 -0.1112742 -0.1226395
00000000: ebdf 03bd 11ed 6bbd b153 3abe 012b dbbc
00000010: 1562 9cbe fa78 64be 9431 093d f99e 34bd
00000020: 56fa 65bd a3b4 633c 2fc1 1fbd 965c a0bd
00000030: d1c7 88bd b425 a83d 75b2 57be e02c 373e
00000040: fe1b d83c 4774 dd3c 5904 9e3b c138 393c
00000050: c9e1 4a3e a44e e7bd 904e d03d a4b0 143e
00000060: 3a2d c3be c1ad 24be d271 fdbd f128 873d
00000070: 6710 103d 0066 4dbd 1e07 683d a6ad 8bbd
00000080: f89f b83c 30f7 91bd 1186 eebd 387e d7bd
00000090: 6801 91bd b3d0 893d 5338 973d 43eb 7e3d
000000a0: b987 f83c 24bd 68be 6c19 0ebd f480 4ebe
000000b0: 9dbd 5bbe a4da 6fbd 348c 35bc 9004 8abe
000000c0: 6e11 97bd 4f6f e6bc eaa6 eabc c58f e43c
000000d0: 260e 93be 4471 4f3c 1928 b7be 7a74 9abe
000000e0: c452 25bd cf2a d2be 4285 49be 4544 b43d
000000f0: c459 c2bd 8d5a 44be 84ba bbbd 9151 3abd
00000100: a872 a5be 7b69 603d 218f 333e 3cf5 47be
00000110: 07a3 03be 59ce 0d3d cb0f debd 4c1a 5abe
00000120: 5b13 b23d b597 05bd b774 94be fe25 a63d
00000130: 4644 d53d 35cc 92bd be5f bdbc 99e9 9c3b
00000140: e528 b8bd a940 3a3c c3cf a83d 25e8 0b3e
00000150: 1756 d93c fe7c 75bd 42d0 ae3d f52c b03d
00000160: 3515 253d 14e8 343c 9e43 8ebc 50f6 afbc
00000170: fce3 393d 1b4f 4f3d 55e2 bd3b 28ce 26bd
00000180: 6009 9dbd 5ec2 1dbe e40e c2bd 8d61 5abd
00000190: d2bb 86bd 5125 edbc d7ce cc3d fce0 eeba
000001a0: c592 92bd a9bb 5dbd 40d6 8d3c c889 c9bd
000001b0: 460d bc3d 2032 8e3d eab3 bd3d e618 373e
000001c0: fe18 3fbd 39f9 673c 597e 4e3d 59a5 be3d
000001d0: 8f13 dc3d 1c36 6f3c 06fa 123e 051a a3bd
000001e0: 5819 8dbd fadd 09bd fec8 a43c 2427 17be
000001f0: ae2c 34bc 41f9 813c 31cf e8bd ab4d 4dbd
00000200: d386 823d ffd1 16bc c232 12be fff8 81be
00000210: f423 ad39 127a a3bd 43b3 39bd 0939 88bc
00000220: a097 2c3e 3b88 01be eb84 62be 3012 4bbe
00000230: 16ce 85bb f58c 46be c039 ff3d af91 9abd
00000240: 0745 b5bc c375 39be fb90 63be 284e a4bd
00000250: a4b3 93bd 50dd b9bd 1b99 233b 0688 15be
00000260: 32e9 ddbd 8e81 47bc 7803 15be 5cbb 44bd
00000270: 925e 4abd d41d 84bd f570 bb3a 3411 a1bc
00000280: 69c8 3d3d adf8 22be 4d8a f9bb f160 23bd
00000290: c1ee cb3c ed6e d23b 6d8a e33d 49be 433d
000002a0: 7856 2cbe 2241 0b3d 7c3c 813d 7e19 cdbd
000002b0: 2870 0ebd 0277 293d 9ffa 513d 28db 1a3b
000002c0: 2245 2f3d 59d1 ab3d f6f6 2ebe c39d 61bd
000002d0: 5c74 343a b800 88bd 4b5a 253d d478 ab3d
000002e0: 71a0 2a3e 17ef 073d 9c8c a9bc 4b2f 3cbe
000002f0: 390b 24be 644b 463d f150 6d3d 5839 34be
00000300: 0ce8 83be 4631 d9be 387a 4cbe e16e 77bc
00000310: 9c3d 18bd ab93 fc3d 6411 753d 5a67 6bbd
00000320: 2aaa 37bd 0a21 453c 5f9e ec3d a33c 1e3e
00000330: 5d3c 8f3d 09c0 44bd 71af 8dbd b7cd 803c
00000340: 67dc a4bc 6824 b43c b25a fc3d 6228 393d
00000350: e3cd 133e 20a8 d73d cbe5 16be d09a 72be
00000360: ec96 4339 ca47 993d b717 153e 3834 443e
00000370: 0aa8 64be 4d6c bcbd 175f 03be 5c73 a6be
00000380: 0d41 5d3c 2c62 04be e7bf 02bb 8ec1 acbc
00000390: 4a59 373d f4c2 b83b f3f0 f9be 5bd4 c2bd
000003a0: d8bd 2abe 1095 74bd bfc7 b3bd d701 343e
000003b0: 0d7a d03d 21ba c43d 16c4 9c3d 16d9 b4be
000003c0: 2a41 20bf 68f8 cabe 3ef0 b73d d970 943d
000003d0: bf4b a13d 206b f0bd 4a6c 6c3d 5bf1 cd3b
000003e0: 0764 70bd 6fa1 90be 3c5b b2be ba86 6c3c
000003f0: 72a8 00be 6bd5 abbd bae3 e3bd 6b2a fbbd

fc1.bias f4 [10]
0.10723544 0.14634942 0.07831488 -0.14310151 -0.05475546 0.0770155 0.04472712 -0.014682578
-0.072051264 -0.07331335
00000000: 419e db3d 9fdc 153e 8d63 a03d 3489 12be
00000010: 4347 60bd 4dba 9d3d c933 373d 328f 70bc
00000020: 9d8f 93bd 4f25 96bd
