Pytorch/MNISTmodel.pth (torch, 39353 bytes, 6 tensors)

conv1.weight f4 [8, 1, 3, 3]
00000000: aef4 223f dcd3 8cbc dc41 0ebf e394 07be
00000010: 844d 163f 74b5 c53e 1b0b ee3d e294 a63d
00000020: 7fed bb3e 8179 fdbe 7cee 27be ca27 e43e
00000030: aebc 43bf a8dd 243d 5439 d23e 4c18 ebbe
00000040: 8792 8d3e 421c 293f 77ec 09bf 6b02 b7be
00000050: 034d 1d3f feab b2bc 15ba 9bbf 52d3 71bf
00000060: a155 1b3f 5239 f53e 57bd b2be 6925 333f
00000070: 7f97 1d3f d8f4 b43e b1fa 503e 0235 b63e
00000080: 5739 09bf 21df 15bf ecfa 7bbf a46d ecbe
00000090: d581 6d3e c2db 333e a29a adbd 96eb 0e3f
000000a0: 80c1 103f 58be f33e 9204 2d3e 90e6 843e
000000b0: eb91 463d 84cb a03e fb2f 1d3f dcb4 063f
000000c0: 7233 1ebe 9941 633e abfb 083f 2292 68bf
000000d0: e0af 2ebf 0c24 01be e526 893e c9a1 0d3f
000000e0: 0085 45bc 3ead 5a3e 47d6 553f 73c5 1e3f
000000f0: d93c f23d c790 903e 5c2c 513f 432f ce3e
00000100: 78c5 da3e 6b0b b6be b9bb b43e d1fa 543d
00000110: 4eac 4bbf 4079 593f b891 003f f215 4bbe
0.636546 -0.017190866 -0.55569243 -0.1324039 0.5871203 0.38615 0.11623212 0.08133866
0.36704633 -0.49506763 -0.16399568 0.44561607 -0.7645978 0.04025045 0.41059363 -0.45916975
0.27650854 0.66058743 -0.5387644 -0.35744032 0.61445636 -0.021810528 -1.2166163 -0.94463074
0.60677534 0.47895294 -0.3491008 0.6997896 0.6155929 0.3534305 0.20408131 0.35587317
-0.5360312 -0.5854359 -0.9842975 -0.461774 0.23194058 0.175643 -0.084767595 0.55828226
0.5654526 0.47606158 0.16896275 0.25957155 0.048479002 0.3140527 0.6140134 0.5261972
-0.15449312 0.22192992 0.53509015 -0.9084798 -0.68237114 -0.12611407 0.26787487 0.5532499
-0.012055635 0.21355149 0.83530086 0.62020034 0.11828012 0.28235456 0.8170831 0.40270433
0.42728782 -0.35555586 0.3529947 0.05199701 -0.7955979 0.8495064 0.5022235 -0.1983259

conv1.bias f4 [8]
00000000: ef2d abbc ca2a 2c3d 8193 b03e 234d 833e
00000010: 2773 d6bb 42d0 f1bb 59c8 b4bc 6a69 44bc
-0.020895926 0.042032994 0.34487537 0.25644788 -0.006544489 -0.0073795626 -0.02206819 -0.011988023

conv2.weight f4 [16, 8, 3, 3]
00000000: 0d95 3dbd faba f73d ae08 dabd a863 b7bd
00000010: 4095 6c3e 8fb1 eb3d 8889 72be 8168 7d3e
00000020: c2c2 ca3e a636 4dbc a4e4 54bd 5c4b 7bbe
00000030: b12a 91bd f038 5ebe dfab 9fbe b7a2 27be
00000040: d223 99be e2d1 eabe 988c ffbe 9227 16bf
00000050: 591c d9be 8114 65bd a05b 11be 8054 923d
00000060: dacb c53d 6334 9e3e ae76 0a3e 9c75 ecbe
00000070: 3205 97be 0336 df3e cd1d 0ebf 1a10 35bf
00000080: b7db a63c 8dad c5be de53 a9be d9ee 28be
00000090: a03b 1c3d 79ef 903d 4042 1abd 4da1 85bc
000000a0: ba49 50bd 379d 0abc 386a 90be c8e4 a33d
000000b0: 1c58 4c3e a2c1 0c3d 00be 833d abe8 4f3d
000000c0: d6ac 4c3d bd98 333e d4e7 423c b269 623e
000000d0: 8de0 b23e 84b6 f83e 5db5 553d 4942 47bd
000000e0: 1924 67be 4d7f f43d 0892 f73d cac5 fcbd
000000f0: d0d0 bebe 45dc 333e 0dc6 953e c6ff de3d
00000100: 12a2 a93e 34c3 9e3e 733c 25be ffe0 cd3e
00000110: 0be5 973e 5bf5 43bf f69a 84be 042b 03bd
00000120: d05a 39be c649 4dbe 66e8 cfbd 1761 813e
00000130: fcf3 2e3e 8e19 19bd b046 8e3c 0a6f bfbd
00000140: 1462 33bd 3504 bb3d 0892 773e 7f80 463e
00000150: f6b0 3a3e be00 c83d 3e79 52be 4b09 e9be
00000160: 3f31 44be 402a a7bd 0817 13be 85ae a3be
00000170: 74f4 0dbe ad06 86be ea7b 20be fe93 7ebe
00000180: 4dc0 3f3e f4e1 a43d 6146 11bd 56ed 9d3e
00000190: c02b 783e 8f3b 42bc 52e7 febd 09b1 8bbd
000001a0: 1f7e dbbc 640d 0c3f d585 023f 93d0 0d3e
000001b0: 6eee b6be 6e37 4fbd ec40 36bc 7052 ad3d
000001c0: d692 5e3e c4fd 4c3e 5e30 a33d fe82 bbbd
000001d0: 1400 5fbc 0ef4 0cbf 9fab 05bf 3112 0ebf
000001e0: 6064 4c3d d2ab 683e 7d74 603e 9920 2e3f
000001f0: a00c 143f 68d1 6b3e b102 7fbe ca59 78bd
00000200: e3f6 44be 1dfe 473e 1375 0a3e 1bf4 f93d
00000210: 8cf0 89be 2fd6 56be 5355 cfbc 9bfc 6abe
00000220: 5df4 28be 6bb3 6bbd a41e 233e eba7 7d3e
00000230: 6f43 2f3e 346d 1ebe 7733 babe a483 a6be
00000240: 4eee 3f3e b6e8 bf3d 5677 48bd 4fce 873c
00000250: 0f10 85bd 57e4 89be 4118 7abd 31c8 e73d
00000260: 89c1 b8bd b926 e13e d052 0c3e b260 413c
00000270: 9f69 1c3f 5283 aa3b 7970 9a3e 579b 023f
00000280: 9071 cf3d b551 de3c 6cbf 58be 8c93 bfbe
00000290: 4981 20bc 948f f9be 8b54 213d 64c4 b53d
000002a0: 9cf1 41be 3304 c3bd cc8a 553d acde 18bf
000002b0: 337f 33be 1f88 913e 1255 28bf 3ba5 6ebe
000002c0: ed35 74bd 1146 3dbf 1887 45be b7d2 29be
000002d0: 8625 0f3e 798f a43d 2a4e 82bd 218b 5fbd
000002e0: 272b 373e 75e0 d2be 6840 383b 29e2 203e
000002f0: 96f3 28be 7ef8 1dbd c4ef 113e 57a5 7e3d
00000300: 3546 a73a 845f 4dbe cda5 95be 7dc5 8abd
00000310: be05 7bbe d060 c6be 0425 a23d 54e3 7a3d
00000320: 05b8 5ebe a479 1b3e 2a5a adbd 521c b5be
00000330: c4c0 3c3e 10ae f1bc 5985 abbd 25f6 8dbb
00000340: a93f 4b3e 1c80 f13c 884a 3fbd 1840 b13e
00000350: f300 4abe 67c5 d7bd 17d5 8b3e edb0 a63b
00000360: 0bcb 103e a0da 213e 5a12 a8be e9fb f53d
00000370: b441 5a3d 1e34 54be b0e2 4b3d d365 aabd
00000380: 1aca 04be d45b 9b3e 72ca d5be 7481 b1be
00000390: 6d15 123f 4bb6 48be 210a c53e 7899 523e
000003a0: bae2 2abf 7d81 703e 81d3 2fbe 9275 413e
000003b0: 9059 903e 4db6 ddbe b3a4 9ebd 4e1b 703d
000003c0: d628 bcbe fcb4 cabe 1c45 05be bcd8 d0be
000003d0: 189e bfbe a50f 83bd fa88 f0be 2cbb 56be
000003e0: fdd3 10bd eed5 7cbe d542 4a3e 2856 003e
000003f0: 9d6d 943e 0a19 ab3d 7f04 b1be fde8 50bd
-0.046284724 0.1209621 -0.10646187 -0.08954555 0.2310381 0.11508476 -0.23685277 0.24746896
0.39601713 -0.012525236 -0.05197586 -0.24540466 -0.07088221 -0.21701407 -0.31185815 -0.16370665
-0.2991014 -0.45863253 -0.49911952 -0.5865413 -0.4240444 -0.055927757 -0.14195108 0.07145023
0.09658022 0.30899343 0.13521835 -0.4618348 -0.2949615 0.43595895 -0.5551422 -0.70727694
0.02036844 -0.3860897 -0.33071798 -0.16497363 0.0381428 0.07076926 -0.037660837 -0.016312266
-0.05085156 -0.0084603345 -0.28206038 0.08002621 0.19955486 0.03436435 0.06432724 0.050759
0.049969517 0.17538734 0.011896092 0.22110632 0.34936944 0.48576748 0.052174915 -0.0486472
-0.22572364 0.11938343 0.120884 -0.12342413 -0.37268686 0.17564495 0.29252663 0.10888629
0.33131462 0.31008303 -0.16136341 0.4021072 0.29666933 -0.7654626 -0.25899476 -0.032023445
-0.18101048 -0.20047674 -0.10151748 0.25269386 0.1708526 -0.037377886 0.01736769 -0.09347351
-0.043794706 0.09131662 0.241768 0.19384955 0.18231568 0.097657666 -0.20554063 -0.45514902
-0.19159411 -0.081623554 -0.14364254 -0.31969085 -0.13862783 -0.26176968 -0.1567227 -0.24861142
0.187257 0.0805091 -0.03546751 0.30845135 0.2423544 -0.01185502 -0.124464646 -0.06820876
-0.026793538 0.5470793 0.5098546 0.13849096 -0.35728782 -0.05058997 -0.011123877 0.08462989
0.21735701 0.20018679 0.0796821 -0.09155844 -0.0136108585 -0.550599 -0.52215 -0.5549651
0.049900413 0.22721794 0.21919437 0.6801849 0.57831764 0.23029101 -0.2490337 -0.060632505
-0.19234805 0.1953053 0.13521223 0.122047625 -0.26941335 -0.20980142 -0.02530924 -0.22947924
-0.16499467 -0.057544153 0.15929657 0.24771087 0.17115568 -0.15471345 -0.3636739 -0.3252231
0.1874325 0.09370558 -0.048941933 0.016577868 -0.064972036 -0.26932022 -0.061058287 0.1131748
-0.09021289 0.43974856 0.13703465 0.011802839 0.61098665 0.005203643 0.30163935 0.5101828
0.10129082 0.02713857 -0.21166772 -0.37417257 -0.009796449 -0.48742354 0.039387267 0.08875349
-0.18939823 -0.09522285 0.05213432 -0.5971477 -0.17528991 0.28424165 -0.65754807 -0.23305218
-0.05962174 -0.7393504 -0.19289815 -0.16584288 0.13979158 0.08035178 -0.06362565 -0.054576043
0.17887555 -0.41186872 0.002811456 0.15711273 -0.1649917 -0.03856706 0.1425162 0.0621694
0.0012762012 -0.20055968 -0.29228058 -0.06775949 -0.24513909 -0.38745737 0.079172164 0.061251953
-0.21749885 0.15183121 -0.08464463 -0.3537317 0.18432909 -0.029501945 -0.083750434 -0.004332321
0.19848503 0.029480033 -0.046701938 0.34619212 -0.19726925 -0.105356984 0.27311012 0.005087009
0.14139955 0.15806055 -0.328265 0.12010939 0.053285316 -0.20723006 0.049776733 -0.08320203
-0.1296772 0.30343497 -0.41756016 -0.34669077 0.57063943 -0.19600789 0.3848429 0.20566356
-0.6675221 0.23486896 -0.17170526 0.18892506 0.2819333 -0.43303147 -0.07746258 0.05861979
-0.36749905 -0.39591205 -0.13014644 -0.40790355 -0.37425303 -0.06399468 -0.46979505 -0.20969838
-0.035358418 -0.24690983 0.19752057 0.12532866 0.28989878 0.08354385 -0.34573743 -0.051003445

conv2.bias f4 [16]
00000000: 369c e0bd bc08 4e3c 3d1e 59bd 9675 a9bc
00000010: e7b8 3dbd b8a3 26bd a81d 4bbd d8bd 2f3d
00000020: 5655 98bd b350 ffbd f85c 13be 0bff 873c
00000030: 3e95 e1bc 6876 17be a23c 14bc a188 b2bd
-0.10967295 0.012575325 -0.053007353 -0.020685952 -0.046318915 -0.040683478 -0.04958883 0.04290566
-0.074381515 -0.12466564 -0.14390934 0.016601106 -0.027536985 -0.14791262 -0.009047659 -0.08717466

fc1.weight f4 [10, 784]
00000000: 6c5f 78bc f50d dfbd d21f e2bc 1eb8 23bc
00000010: 4194 243d d6f5 a13d f69e 4fbd 9a78 1abc
00000020: 0645 29bd ecd3 c6bd e269 183d 1198 213d
00000030: 1388 e43d 42be 13bd 3ca8 c83c 223d cc3c
00000040: 2bef 7ebd bf71 c43c 4906 ec3d ea53 803d
00000050: edce 62bb f98f 7fbd 0b1a 693d 996b 84bd
00000060: c5f4 7bbe 8413 b4bc 5650 f33d 93d3 213b
00000070: 591d 12bd d6d1 063d 0294 bd3d 9efa 1fbd
00000080: 51e7 19be 71a0 f3bd 013c fabc e219 00bc
00000090: 063b ac3d c19b e23d de07 0b3e f448 0dbe
000000a0: 973d 84be 8b0e 34be 91e5 3cbc 6fd1 8b3d
000000b0: fb99 42be 8206 3cbe 0495 fabc 08b2 07be
000000c0: 8c8c 92bb b18a 4a3e 7618 933d 0b58 2bbd
000000d0: bd52 b8bd 850b b33d a37d 76bd 85a3 d3bc
000000e0: 206d c13d 418f f2bd 23a6 dabd 2ab7 dabd
000000f0: 4d5b 14be f3c0 89ba 47a9 193e a2eb 05be
00000100: 9169 35bd fd3a a7bd 2bea 28be 5c35 58be
00000110: f7fb 7bbe 9233 c1bd d311 c9bd d6f5 31bd
00000120: 4cf6 91bd 3d91 a7be ad6c 5bbe c042 a13d
00000130: 7029 2cbe 0635 393e d65b 1fbc 0def 20be
00000140: f212 ce3c 3f60 783d cab7 073c 1077 32bd
00000150: 2764 ae3d 8962 a3bb e518 7fbd e302 8a3c
00000160: 3a5b 2cbc d15f 02be 55a9 423e e40b bbbc
00000170: 6d9a a4be cfa7 f7be 91cb 3dbe 342f f9bc
00000180: e190 b0bd a1cc cb3d 50eb 1c3c e305 103d
00000190: e4f2 bbbd bdda ae3c b249 b5bd e26f 9b3c
000001a0: be68 0dbe ed6a d6bc d7a5 b8bc 4c0c 30bd
000001b0: fff5 0bbe f5bf 68bc ee36 343d bf9c 0e3e
000001c0: ff8f 653c f7f5 d43c ce1a 6a3d 5fee cbbd
000001d0: 7137 d03d 11ec fe3d cd39 053e e757 773c
000001e0: 204e 2d3d 7ba3 703d 9735 a13e 198d db3d
000001f0: 0f4e ca3d 39e0 213e db1d 12bd 244b 893d
00000200: 00a3 413e 72cc 613d 965b 07bd 0ea1 01bd
00000210: aa83 a03d 3079 883c b6ba 8f3e 0ba8 683e
00000220: d74f 91be 1075 cbbd fd5c c0bd a5b0 47bd
00000230: 6952 c2bc 8814 e5bb ed95 cfbd a993 bdbe
00000240: 4b0c 19be c911 83be fb79 10be da91 e4bd
00000250: e467 4dbe 5b2a 9ebe b671 09b9 d66e aabe
00000260: 6053 21bd ec31 433e dc3e 40bd 84ad d0bd
00000270: e922 e5bd 685e 57be 5b96 44be d4be fdbd
00000280: 3964 253e 8e2b dcbc c2f3 1fbe d956 873d
00000290: 3610 35be e41f d53d 688a f93d b155 cc3d
000002a0: 3f02 62be 9d2a 363c d5ad 4e3d e3a7 413e
000002b0: 236a d43d ec0f c03d dcf0 0f3e e488 0c3e
000002c0: 0602 aa3d 5f27 863b 6e90 c53d d187 c6bd
000002d0: d937 16bd a1b8 833d f961 113b b194 413e
000002e0: 999b 263e 0d7c ddbe eb6e 25be 88cb f4bc
000002f0: 9d3b 8ebd e434 b4bc eb24 ccbc 9757 33bd
00000300: ef91 f0be ce09 bfbe d644 98be b5d7 7d3b
00000310: f45f 6fbd 8bb4 fbbd 673b 30bd d14c a1bc
00000320: 9e50 8abd 6143 893d dcee 73bc b8cc 11be
00000330: 1e56 89bd e847 7ebe f3ba 69bc 87f7 2e3d
00000340: d900 873d aab6 b3bd 01ce dabd 6b7b 653c
00000350: 8e3a fdbd 0de1 343e cc8d 1b3e 817a ef3d
00000360: 0d6e fc3d 9151 64bb d29c 873c 7d18 3ebd
00000370: 1240 463e 24de c23d 47e7 d63d 1134 a6bc
00000380: 2c55 21bd 9e66 d03c 66ac e23d 0ed4 303e
00000390: 7e61 9bbd 9e25 29bd fc4a 09be 517b 6dbd
000003a0: 72ff 163d 2987 443d 7965 703e df80 e2be
000003b0: 8f68 bfbe dd6a 16be 7274 96bc b12b 15bc
000003c0: f78f 0ebe 1849 25be 35b3 24be a047 b5be
000003d0: a850 fdbd 6444 2a3d 55cf 70bc df70 5d3c
000003e0: f078 72bd bd25 3a3c ce52 083d 47ce 19bd
000003f0: 8018 473d 2c9a cc3d 76a8 41bd 10e7 103d
-0.015159469 -0.10891334 -0.027603064 -0.009992627 0.04018045 0.079082176 -0.050688706 -0.009428168
-0.04132559 -0.0970839 0.037210353 0.039451662 0.111587666 -0.036070116 0.024494283 0.024931494
-0.062239807 0.02398002 0.11524636 0.06266005 -0.00346082 -0.062393162 0.056909602 -0.06465835
-0.24605091 -0.021981962 0.11880557 0.0024692758 -0.03567252 0.03291496 0.09256746 -0.039057367
-0.15029646 -0.11895836 -0.03054619 -0.007818671 0.08409695 0.11064864 0.1357722 -0.1379736
-0.2582824 -0.17583673 -0.011529342 0.06827056 -0.19004051 -0.18361858 -0.030588634 -0.13251507
-0.004472321 0.19779469 0.071824 -0.04183201 -0.09000156 0.087424316 -0.06017841 -0.025834808
0.09444642 -0.1184373 -0.10676219 -0.10679467 -0.14487953 -0.0010509774 0.1500598 -0.13078168
-0.04429013 -0.08165548 -0.16495578 -0.21114105 -0.24607836 -0.094336644 -0.09817853 -0.043447338
-0.071270555 -0.32727996 -0.21428175 0.0787406 -0.16812682 0.18086633 -0.009726485 -0.1571619
0.025155518 0.060638662 0.008283565 -0.043570578 0.08515196 -0.0049861115 -0.0622796 0.01684708
-0.010519797 -0.12731864 0.19009908 -0.022832818 -0.32149068 -0.48370215 -0.18534686 -0.030418016
-0.086213835 0.09951139 0.009577587 0.035161864 -0.09177187 0.021344537 -0.08851947 0.018974248
-0.13809487 -0.026174033 -0.022540016 -0.042980477 -0.13668059 -0.014205922 0.043997698 0.13926981
0.014011382 0.025996191 0.05715447 -0.09957575 0.101668246 0.1244737 0.1301033 0.015096641
0.042310834 0.058749657 0.31486198 0.107202716 0.0987817 0.1580819 -0.035673004 0.06703785
0.18909836 0.055126615 -0.033046328 -0.031647734 0.07837613 0.01665935 0.28072137 0.22720353
-0.28381225 -0.09934437 -0.09392736 -0.048752446 -0.023720937 -0.006990973 -0.10136018 -0.37026718
-0.14946096 -0.25599506 -0.14109032 -0.111606315 -0.20059162 -0.3089169 -0.00013107699 -0.33287686
-0.039386153 0.19062012 -0.046934947 -0.101893455 -0.11188299 -0.21032107 -0.19197981 -0.12389913
0.16151513 -0.026876237 -0.1562033 0.06608362 -0.17681965 0.10406473 0.12184602 0.09977282
-0.2207117 0.011118558 0.050458748 0.189117 0.103718065 0.09378037 0.14056724 0.13724095
0.08301167 0.004094049 0.096466884 -0.09693874 -0.036674354 0.064316995 0.002218364 0.18904378
0.16270293 -0.43258706 -0.16155593 -0.029882208 -0.06944964 -0.021997876 -0.024919948 -0.043784704
-0.46986338 -0.37312168 -0.29740018 0.0038733308 -0.058441117 -0.12290295 -0.0430254 -0.01968995
-0.06753658 0.06702305 -0.0148884915 -0.1423825 -0.06705879 -0.24832118 -0.014265764 0.04271653
0.065919586 -0.08775075 -0.106838234 0.014006476 -0.12364684 0.17663975 0.1519081 0.11693288
0.12325678 -0.0034838656 0.01655427 -0.046410073 0.19360378 0.09515026 0.104933314 -0.0202885
-0.039387867 0.025439557 0.11068039 0.17268392 -0.075869545 -0.04129564 -0.1340751 -0.05797893
0.036864705 0.04798046 0.23476209 -0.44238946 -0.3738446 -0.14689203 -0.018366072 -0.009104655
-0.13922106 -0.16141164 -0.16083987 -0.35406208 -0.123688996 0.04156913 -0.014697869 0.01351568
-0.059197366 0.011361537 0.033282094 -0.037550237 0.04860735 0.099903435 -0.047279797 0.03537661

fc1.bias f4 [10]
00000000: 8835 b93d fe4e 963c 0302 173d 7ecd 25bb
00000010: fb21 50bd e77d 27bd 1f6c cc3b d9c2 34bc
00000020: 075e a73b 1308 723d
0.090434134 0.018348213 0.036867153 -0.0025299485 -0.050813656 -0.040891554 0.006238475 -0.011032783
0.0051076445 0.05908973
